model.pth (torch, 89871 bytes, 8 tensors)

conv1.weight f4 [10, 1, 5, 5]
000000 db 29 ce bd 72 5a 84 3e 0b 14 0c 3e 26 71 83 3e
       -0.10066577 0.25850254 0.13679521 0.25672263
000010 e2 c7 54 3e d7 22 80 3d bc 98 33 3e 46 e6 1e 3e
       0.20779374 0.06256645 0.17538732 0.1551753
000020 f3 2a 4b 3e df b3 55 3d 89 e4 93 bd 3a db 57 bd
       0.19840603 0.05217349 -0.07221324 -0.052699305
000030 a5 31 22 bc 25 71 5c bd e8 96 18 3e cf c8 37 bd
       -0.0098995315 -0.05381884 0.14901316 -0.04486924
000040 af c9 3d be b6 39 94 be 58 25 67 be 53 9c 5b be
       -0.18533967 -0.2895028 -0.2257284 -0.21446352
000050 bd 7b 01 be e5 4e d7 bd 4e 96 bb bd 6d 43 c5 bd
       -0.12644859 -0.10513095 -0.09159528 -0.09632001
000060 e3 31 93 be 22 fe 7f 3e 07 d1 9f 3e ad 6c ca 3e
       -0.28748998 0.24999288 0.31214163 0.39536038
000070 65 24 8d 3e 57 81 ee bd 96 9b 08 be 43 33 ae 3c
       0.2756683 -0.11645763 -0.13340601 0.021264678
000080 ad d9 a7 3e dd e5 59 3e fa af 94 3e 7e d0 61 be
       0.3278326 0.21279092 0.2904051 -0.2205219
000090 f2 54 46 3d 4a 0b fe bd 78 20 4f 3e ce 95 2e 3e
       0.048420854 -0.12404497 0.2022723 0.17049333
0000a0 ca 70 a7 be a9 1b dd bd 8a d1 86 be a3 71 c4 bd
       -0.3270324 -0.107962914 -0.2633174 -0.09591987
0000b0 86 2a 1b 3b e5 35 6d be c8 81 bf be a7 80 87 be
       0.002367647 -0.2316509 -0.37403703 -0.2646534
0000c0 9a d5 9e bd aa d1 91 bd 55 70 af 3e 15 97 c2 3e
       -0.07755585 -0.07120068 0.3426539 0.3800589
0000d0 51 f5 37 3e 9e 4d b2 bb 36 5a 68 3e e2 6a c8 3d
       0.17964675 -0.0054413816 0.22690663 0.09786011
0000e0 1c 45 cf bc 69 d4 8e 3e 2d 5d 85 3e 8f c0 8e 3e
       -0.025301509 0.2789643 0.2604765 0.27881286
0000f0 66 b3 24 be e9 f9 13 bc 7d 08 b4 3d 5c 08 ef 3d
       -0.1608406 -0.009031751 0.087906815 0.11671516
000100 1b d2 09 be 25 a5 27 be 57 7f 17 3e 3e cf eb 3c
       -0.13459055 -0.16371591 0.1479467 0.028785344
000110 26 ff 04 3e fe 02 18 bd 35 fe 15 3d 05 65 90 3d
       0.12987956 -0.03711223 0.036619384 0.07050518
000120 9f 2c 07 3e 6c 8f bf 3d e1 e7 8d be ad 5c fb 3d
       0.13200615 0.093535274 -0.27715972 0.12273536
000130 70 b4 16 be 2e 54 39 be 6d 15 62 bd f7 83 a7 bd
       -0.14717269 -0.18098518 -0.055196214 -0.08179467
000140 ed f2 3b 3e 2e 13 b5 bd e7 10 6e be 6d 2e 64 3d
       0.18354388 -0.08841549 -0.23248635 0.055708338
000150 56 a0 b2 bd 96 74 4e 3e 75 84 19 3e 5c a6 17 be
       -0.08721988 0.20161662 0.14991935 -0.14809555
000160 35 0b 2f 3d 0b f5 a3 3d 81 6a 64 bd 81 df c1 3c
       0.042735297 0.080057226 -0.055765633 0.023666145
000170 6c 6a 37 3e a0 6a 23 3e ae 8e a6 3c a3 3e 71 3d
       0.1791169 0.15958643 0.020331707 0.058897626
000180 8a b7 aa 3e d2 94 a5 3d fe 5d 75 3e 39 3d 52 3e
       0.33343154 0.08085026 0.23961636 0.20531167
000190 ee d5 13 be 51 b8 20 be f6 7a 6a 3e 41 04 df 3d
       -0.14437076 -0.15695311 0.22898468 0.10889483
0001a0 42 91 55 3e 59 29 02 3e 2a cd 5b 3e b6 aa bd 3e
       0.20856193 0.12711085 0.21464983 0.37044305
0001b0 3a 89 c7 3e 15 77 17 bd 1f 11 e8 3d 77 a8 4d 3e
       0.38971883 -0.0369788 0.113313906 0.20083795
0001c0 f2 3e 3e 3e aa 4e 4a 3e e8 fa b4 bd 71 c3 2e be
       0.18578699 0.1975657 -0.08836919 -0.17066742
0001d0 29 a6 56 be 9b e4 81 bd 8f 47 5e 3e a9 3c 67 bd
       -0.20961823 -0.06342431 0.21706985 -0.056454334
0001e0 44 25 4d bd 82 d1 82 be 3c 7c 84 be 52 bc c0 bc
       -0.050084367 -0.25550467 -0.25876033 -0.023527298
0001f0 49 04 5f 3e 3e c0 80 3e c5 05 06 3c d3 56 2c 3e
       0.21778978 0.2514667 0.0081800865 0.16829996
000200 97 fb 6d 3e e7 5b b2 3d 74 8e 25 3e a3 a3 86 3e
       0.23240505 0.08708935 0.16167623 0.2629672
000210 36 75 77 3e 39 fc c0 3d 25 bc 35 be 94 16 4c be
       0.24165806 0.09423108 -0.17747553 -0.19930488
000220 1d b9 a9 bd a0 f2 f6 3c 00 9c 5f bd 32 d8 dc 3d
       -0.08287261 0.03014499 -0.054592133 0.107834235
000230 bd 25 19 3c 60 0e 86 bd 17 37 1e 3e 9a fe 4d 3e
       0.009347376 -0.065457106 0.15450703 0.20116654
000240 69 a9 94 3e 0c ff cb 3d d4 4b 91 bd 6c 7b 83 3e
       0.290355 0.09960756 -0.07094541 0.256801
000250 0d 18 bc 3d 09 f4 f9 3d 5f 53 a4 be e8 18 90 be
       0.09184275 0.12204749 -0.32094857 -0.28144002
000260 a0 9d 43 be 76 84 da 3c de 8a a6 3e 0a b9 94 be
       -0.19103098 0.02667449 0.32527822 -0.29047424
000270 b5 8b 93 be f3 88 2f 3d 34 b3 6a 3e f0 e8 ba 3e
       -0.28817526 0.042855214 0.22919923 0.36505842
000280 af 39 ae be 5d 82 90 bd ae 12 a3 3c 7b db 8f 3e
       -0.34028384 -0.07056115 0.019906368 0.28097138
000290 23 cb 0f 3e b0 f5 97 be 81 f5 aa bd 0b d2 8a 3e
       0.14042334 -0.29679632 -0.083476074 0.27113375
0002a0 39 98 ae 3e 6e 5d 73 3e fb 36 0b 3e ca ef 7c 3e
       0.34100512 0.2376611 0.13595192 0.24700847
0002b0 e4 1e 90 3e 93 40 2d 3e 28 28 91 bd 96 de c6 3d
       0.28148568 0.16919164 -0.07087737 0.09710424
0002c0 c7 b8 ca bd eb 25 62 bd ad 72 80 be 67 0a 1f be
       -0.09898525 -0.055211943 -0.2508749 -0.15531312
0002d0 7b 14 09 be 8a d1 d2 3d e6 a3 8a be 54 14 98 be
       -0.13386719 0.10293873 -0.2707817 -0.2970301
0002e0 bf e0 2c be c6 15 81 bd 9d 99 3b 3d 79 b8 dd bd
       -0.16882609 -0.06302981 0.045800794 -0.10826201
0002f0 bb 83 11 be 56 a4 4c bc 41 bc 6a 3e b6 0e 9a bd
       -0.14210407 -0.012490353 0.22923376 -0.07522337
000300 c3 23 78 3e 2c 81 a5 3e 0d ef b8 3e 4b 30 3d bd
       0.24232392 0.32325113 0.3611988 -0.046188634
000310 94 f4 4f 3e dd 89 9c 3d 32 d7 c0 3e fa 01 23 3d
       0.20308143 0.07643483 0.3766418 0.039796807
000320 0c ef 79 3e da bf 1c 3e ef 71 0a bc af 38 1b be
       0.24407595 0.1530756 -0.008450015 -0.15158342
000330 c0 6a 23 be ec 12 76 3e d0 b1 42 3e 76 2b d6 3c
       -0.1595869 0.24030656 0.19013143 0.02614377
000340 c1 76 c7 be bf 07 96 bd 84 35 af 3e 9f 3a b0 3e
       -0.3895779 -0.07325696 0.34220517 0.34419724
000350 c5 42 de 3d 26 67 a3 be 25 a3 7f be 11 96 a5 3e
       0.10852579 -0.31914634 -0.24964578 0.32341054
000360 3c 2f 8f 3c c3 2a 74 3e ca 00 76 be 29 44 82 be
       0.017478578 0.23844437 -0.24023739 -0.25442627
000370 c0 39 5d 3e 50 2c 08 3c b0 32 54 3c 5e fa ad 3d
       0.21604061 0.008311346 0.012951538 0.084950194
000380 7a e7 9b 3d e6 37 32 3e f2 6f 84 ba e2 29 61 bd
       0.0761251 0.17404136 -0.0010104163 -0.054971583
000390 0d 37 9d 3e 5a 9f 43 3d a6 92 d2 bd d3 ed a4 3d
       0.30706063 0.04775939 -0.10281877 0.08053174
0003a0 14 c4 f3 bd 90 8b 11 3e 46 85 44 3e e1 37 5e be
       -0.11902633 0.14213395 0.19191465 -0.21701004
0003b0 51 33 7b be 5b a6 f2 bd b4 3e 14 bd 7d 8e e7 bc
       -0.24531294 -0.11848136 -0.03619261 -0.028266186
0003c0 48 54 20 be 63 23 f2 bd 74 2f a0 be db 78 8e be
       -0.15657151 -0.11823156 -0.31286204 -0.2782658
0003d0 e8 3e 75 be 66 06 35 3e a5 a4 18 3e 33 a5 c7 bd
       -0.23949778 0.17678222 0.14906557 -0.09748306
0003e0 a5 83 99 bd 78 32 12 bd
       -0.07495812 -0.035692662

conv1.bias f4 [10]
000000 61 04 cf 3c 22 d5 e2 3a a5 d7 58 3e 44 e3 1c 3e
       0.025270643 0.001730595 0.21176012 0.1532107
000010 08 0b 01 3e 5d 25 27 3d 0b ad 1d 3e 84 76 3e 3e
       0.12601864 0.040807117 0.15398042 0.18599898
000020 b0 f0 ba bd 20 e2 1b 3e
       -0.09127939 0.15222979

conv2.weight f4 [20, 10, 5, 5]
000000 f7 2d 93 3b fa d3 8c bd 29 85 52 3c 59 56 1d bd
       0.0044915634 -0.06876369 0.012849131 -0.038412426
000010 e1 a3 4a 3d a3 0b 3f bd b5 c0 a4 bc 4a 68 e6 bc
       0.049472693 -0.046641957 -0.020111421 -0.0281259
000020 99 12 80 bc 52 f9 a4 3c f9 3b 14 bd 92 c5 9c bd
       -0.015633868 0.020138416 -0.036190007 -0.07654871
000030 bc 38 d3 bd 74 84 bf bc b7 44 26 bd 5c a5 02 bd
       -0.103135556 -0.023378588 -0.040592875 -0.03189598
000040 b5 81 73 bd e0 b9 05 bd 46 42 a5 bb 5a a2 0f bd
       -0.05944987 -0.032647967 -0.005043301 -0.03506694
000050 1b 59 8d bd 20 90 aa bd 2e 54 a1 bd 24 81 e0 3c
       -0.06901761 -0.08328271 -0.07877384 0.027405329
000060 fc 12 33 bd 70 a3 fc 3c d7 80 ae bc c0 cc 96 bd
       -0.043719277 0.030839652 -0.02130167 -0.07363272
000070 4e f9 2d 3d 4d 38 50 3d 81 91 45 3c 9a a8 c7 bd
       0.042474084 0.050834943 0.012058617 -0.09748955
000080 50 f4 f8 bd 31 d5 b5 bd 08 91 c6 bd ed 6a 52 bd
       -0.12155974 -0.08878554 -0.09695631 -0.051371504
000090 f4 dd a5 bd e0 86 e6 bd e5 e8 a7 bd b8 f4 a6 bd
       -0.08098975 -0.11256194 -0.08198718 -0.08152145
0000a0 7d c1 aa bd 29 10 fc bd 3d 4b fd bd 12 17 d5 bc
       -0.08337686 -0.1230777 -0.12367866 -0.026011977
0000b0 5b c5 df bd 80 a5 4c bd 98 86 09 be 4a fc 6d bd
       -0.109263144 -0.04996252 -0.1343025 -0.05810193
0000c0 0e f1 0c bd b2 63 84 bd 8a 5d ea 3d 4b bb 52 bd
       -0.034409575 -0.06464328 0.114436224 -0.051448148
0000d0 85 b9 3d bd aa 7c 23 3d df fe 88 3d a3 a8 8a 3d
       -0.046319503 0.03991381 0.06689238 0.06770446
0000e0 17 88 83 bd 2f a6 7c bd ca 31 43 bc 20 2c 19 bc
       -0.064224415 -0.061681923 -0.011913726 -0.009348899
0000f0 03 a0 33 3d bd c1 ad bd 47 61 08 bd a7 f7 9d 3d
       0.04385377 -0.08484218 -0.033295896 0.077132516
000100 07 84 4d bd 89 a0 fa bc 17 50 38 bc 88 18 cc 3c
       -0.05017474 -0.030594127 -0.011249564 0.024914041
000110 f8 b2 9c 3d d6 93 ed bd e0 92 0e bd ea 5b b9 bd
       0.07651323 -0.11600463 -0.03480804 -0.09050734
000120 c4 73 89 bd 90 ce 33 bd ab 4f 00 bd 42 11 30 3c
       -0.06711534 -0.043898165 -0.031325977 0.010746302
000130 42 98 89 bd be 96 b0 bd 95 5b 91 bd cc cb 6f 3d
       -0.06718494 -0.08622502 -0.07097546 0.058543965
000140 87 27 d3 bc ed 81 46 bd 36 a1 a7 bc f7 bc d7 bb
       -0.025775684 -0.04846375 -0.020462614 -0.0065838057
000150 ce 77 6e bd 9a ae 88 bd c7 27 4e 3c e3 37 c0 3c
       -0.058219723 -0.066739276 0.012582726 0.023464149
000160 da 73 86 bc ff 7d bd bd 7f 0d 08 3c fc 0f 81 3c
       -0.016412664 -0.092525475 0.008303999 0.015754692
000170 fe 0f 86 3d 02 0f 09 bc 4a 5d 03 3c 30 a7 1e 3c
       0.06546019 -0.008365395 0.008017847 0.009683415
000180 49 12 55 bd ba 43 cb bd 55 79 5e bc 17 62 de bb
       -0.05201939 -0.09925027 -0.0135787325 -0.0067865956
000190 73 44 46 3d c7 45 22 bd 57 83 d9 bd 97 3f 60 bd
       0.048405122 -0.039617326 -0.10620754 -0.054748144
0001a0 06 16 bc bb 8b ef 86 3b 09 4a 06 be 8c 98 af bd
       -0.00573993 0.004117911 -0.1311418 -0.08574018
0001b0 03 db 98 bd 65 d5 21 bd 7a a8 6a 3c 2b e3 a5 bd
       -0.07463648 -0.03951015 0.0143223945 -0.080999695
0001c0 9b 47 84 bd 12 2f 75 3d 4d e8 fa 3c 3f e4 76 bd
       -0.0645897 0.059859343 0.030628348 -0.060276266
0001d0 88 79 e1 bd 2d 63 24 bd be cc c7 3d 7c 3f e7 bd
       -0.11009508 -0.040133644 0.09755848 -0.112914056
0001e0 1f be fa bd 4c e2 7d bd 16 6c d6 3c 9a 29 97 3d
       -0.12243294 -0.06198339 0.026174586 0.07380982
0001f0 d5 93 c3 bd 3b 51 8c 3c 1f 92 9b bc 55 d4 04 3c
       -0.09549681 0.017128577 -0.018990574 0.0081072645
000200 1e 5b 5a 3b 19 7a 8b bc de 1b 81 3d ab 40 79 bd
       0.003331847 -0.017025994 0.06304143 -0.060852688
000210 35 5c cc bc 92 76 9d bc 41 ef 2e 3d 4a 0d 16 3c
       -0.024946311 -0.019221578 0.04270864 0.009158442
000220 62 c3 f7 bd e0 e4 b9 3a ec 19 e6 bb b0 c9 b7 bd
       -0.12097813 0.001418259 -0.007022133 -0.08974016
000230 13 b6 5a bd 7a ec 0c be 26 ed 4e bd f5 30 17 3c
       -0.053396296 -0.13762084 -0.05051913 0.009227981
000240 12 21 15 bc aa c7 f6 bc 20 22 b3 bd 87 6d d3 3c
       -0.009102123 -0.030124504 -0.08746743 0.025809063
000250 16 bb 9b 3d 4f 7d c9 bd 2d 35 99 3d cd 5c 58 3b
       0.07604043 -0.09838354 0.074808456 0.0033014298
000260 ec 1a b0 bd 70 0f 4c 3d 0f d8 11 bc 96 1d 0f 3d
       -0.08598885 0.04981941 -0.00890161 0.034940325
000270 b8 78 ac bd 65 ae 85 3d d3 20 0c 3e cb 62 39 3e
       -0.08421463 0.06527404 0.13684396 0.18104093
000280 16 68 10 3d 3c 7a 9f 3c 8e b4 59 3d 91 01 ed 3d
       0.035255514 0.019467466 0.053150706 0.115725644
000290 16 ad 96 3d 7e 8a 93 bc 86 32 54 bc c4 f2 9c 3d
       0.07357232 -0.018010374 -0.012951499 0.07663491
0002a0 a6 af d1 3d 60 ef 80 bc 4b 24 62 3c 71 d7 2d bd
       0.102385804 -0.015739143 0.013802598 -0.04244179
0002b0 ee 01 05 3e 76 d0 bb 3c d2 78 c9 bd 5b ea 18 3d
       0.12989017 0.02292655 -0.09837498 0.037332874
0002c0 7b 3e bd bd 63 ad de 3c be c0 a5 bd 3e 65 e2 3c
       -0.09240433 0.027182287 -0.08093403 0.027636167
0002d0 84 a2 97 bb 3f 8d 85 3c 83 c0 3f bb 91 ee ca 3d
       -0.0046275277 0.016302703 -0.0029259033 0.09908784
0002e0 d2 55 c1 bc 0a f5 b6 bd 34 4f b5 3b 2a 21 62 3d
       -0.023600493 -0.08933456 0.0055331234 0.05520741
0002f0 8d 6e 91 3d e3 f0 5b bd 07 a6 df 3c 90 89 cc 3b
       0.07101164 -0.053696524 0.027300848 0.0062419847
000300 23 4b 4e bd 85 83 c2 bd 1f bf db 3c ac 60 ae bc
       -0.050364625 -0.094977416 0.026824532 -0.021286331
000310 dc d6 50 bb 09 f5 0b be 29 3d 55 bc 95 57 f0 3c
       -0.0031866347 -0.13667692 -0.01301507 0.029338637
000320 f3 d2 8f 3d 97 65 d1 3d 07 0d 58 bd e4 17 85 bd
       0.07022657 0.10224455 -0.0527468 -0.064986974
000330 75 d4 b2 3b 66 59 6a 3d 21 d9 7f 3d 03 34 95 bd
       0.0054574558 0.057214163 0.06246293 -0.07285311
000340 08 47 ca 3c ff ae a7 3d f6 bc 26 3e cd 98 b4 3d
       0.024692073 0.08187675 0.1628302 0.08818207
000350 6c 14 02 be c0 30 67 3d bd 86 ce 3d 53 f3 3e 3d
       -0.12703103 0.056442976 0.10084293 0.04661877
000360 c4 87 a5 3c fb 36 8b bd 2f 4e cb 3d 6a 26 13 3e
       0.02020634 -0.06797596 0.09927022 0.14370123
000370 8f 78 0c 3e 1d 3e b7 bc bf c4 06 bd 78 c3 04 3e
       0.13717864 -0.022368485 -0.032902475 0.1296519
000380 43 0f fe 3d 1e 11 43 3d d3 3a 0b 3d d3 03 4d bc
       0.12405255 0.047623746 0.033991646 -0.012513119
000390 08 9d 5c 3d 51 8d 39 bd db 7a 30 3c c3 c0 5e 3c
       0.053860694 -0.045300785 0.0107714785 0.013595763
0003a0 29 05 28 3c e0 f0 4c bd a0 e8 80 bd 10 6d 60 3c
       0.0102551365 -0.050034404 -0.0629437 0.0136978775
0003b0 af 33 98 bd 0d f5 ac bd 09 0f b0 bd 64 73 40 bd
       -0.07431733 -0.08445177 -0.08596618 -0.046985045
0003c0 b9 ca c4 bc 09 0e 57 bd d1 ee 51 bd eb f0 d6 bd
       -0.024022447 -0.05250362 -0.051253144 -0.1049517
0003d0 e9 f6 b5 3c 6d f2 3a bd f1 08 81 bd d5 0a a3 3c
       0.022212462 -0.04564135 -0.063005336 0.019902626
0003e0 0e 98 40 bd 4a 12 38 3d 09 65 bb bb 93 c6 d8 bd
       -0.04702001 0.044939317 -0.0057188314 -0.1058475
0003f0 a6 e9 a9 bd 52 2b 7e bd fd 5d e6 bc b2 8c 8d bd
       -0.08296518 -0.062053032 -0.028120989 -0.06911601

conv2.bias f4 [20]
000000 b2 73 18 3d 3f b2 3e bd 14 cf 82 bc 60 cc 12 bd
       0.03721971 -0.046556707 -0.015967883 -0.03583944
000010 8f 0e 3e bd 15 38 97 bc 05 78 98 3c 1a 99 12 bd
       -0.046400603 -0.01845936 0.018611917 -0.03579054
000020 2b b3 87 bd 39 25 f4 3c 74 20 3b bd 55 7a 83 bd
       -0.066259705 0.029802905 -0.045685247 -0.06419817
000030 63 97 ea bc 4d 35 19 bc 2b 23 62 bd 03 6b af 38
       -0.02863664 -0.009351087 -0.05520932 8.364583e-05
000040 70 36 21 bd 08 44 92 bc 12 07 84 3c e7 12 b7 3b
       -0.039358556 -0.017854705 0.016116653 0.00558697

fc1.weight f4 [50, 320]
000000 68 d7 19 3d b7 28 a1 bc ce 88 bc 3d 38 8a 98 3d
       0.037558943 -0.019672735 0.09205781 0.07448238
000010 b7 df 98 bc d4 f4 00 bb 91 16 08 3d dd 15 b3 3c
       -0.018661363 -0.001967718 0.033224646 0.021861011
000020 fd f6 38 bc 0c 3b 01 bd a1 b6 a1 bc ab d7 13 bd
       -0.011289355 -0.031550452 -0.019740405 -0.03609435
000030 08 83 9c 3c 17 e5 62 3d db 5b a3 3b db 74 72 3d
       0.01910545 0.05539426 0.0049853153 0.059193473
000040 52 b2 6a bc b1 a9 84 bd e1 fb df 3b de c5 b8 bb
       -0.014324741 -0.064776786 0.006835446 -0.005638822
000050 db 27 10 3d 2c fb 14 bd 0b 94 80 3d fc 40 5b 3d
       0.03519426 -0.03637235 0.06278237 0.05352877
000060 28 42 00 3d 60 31 c6 3c 0d ff 53 3d dc c5 84 3d
       0.03131309 0.024193466 0.051756907 0.06483051
000070 27 4c aa bd 01 d4 06 bd 08 0d e7 bc db 16 17 bd
       -0.08315306 -0.032917026 -0.028204456 -0.03688703
000080 4d 58 00 3d 1e 9d a8 bb 62 3d de bc 27 b9 21 3d
       0.03133421 -0.005145683 -0.027128879 0.039483216
000090 03 54 bb 3c 16 fd 24 3c b2 e6 37 bd 1d 75 fb bc
       0.022867208 0.010070106 -0.044897743 -0.030695492
0000a0 19 94 34 bd 63 5e 0f bd 2d 6b 76 3d 6a 37 b2 bc
       -0.04408655 -0.035002124 0.060160805 -0.02175494
0000b0 d3 6b 2b bd f6 67 a2 3c 4f 65 80 3d 04 22 01 3d
       -0.041850876 0.019824963 0.06269323 0.03152658
0000c0 7c de c2 bc 36 88 2f 3c 3a 84 1e bd 80 57 19 3c
       -0.02378773 0.010713628 -0.03870032 0.0093592405
0000d0 fa db 17 bc ac cb b8 bc 87 94 47 bd d5 c5 a6 bc
       -0.009268755 -0.022558056 -0.04872563 -0.020358006
0000e0 06 f7 8d bd 83 a6 36 3c f6 fe 17 3d c7 46 32 bd
       -0.069318816 0.011148098 0.037108384 -0.04352453
0000f0 6e e2 51 3d ae 27 ed 3d 86 4f 92 3d 02 31 4b bb
       0.05124133 0.11579834 0.07144074 -0.0031004553
000100 86 be 49 bd 6d ed 1b bd 15 92 e8 bc 95 e1 2b bc
       -0.049253963 -0.038068224 -0.02838997 -0.010490795
000110 36 35 fe bc ce 82 0b bc 31 dd 28 3c e4 26 3b bc
       -0.031031232 -0.008515073 0.010306642 -0.0114228465
000120 5d ae 1c b9 ac 13 33 3d af 5c 86 bc 1b 8e 8a bc
       -0.00014942275 0.043719932 -0.016401617 -0.016913464
000130 ee 35 52 3c a5 18 d7 3d 95 c3 72 3c 86 43 a2 bd
       0.012830241 0.105027474 0.014817138 -0.07923035
000140 1d b2 2a bc c6 46 b9 3c 9c cb c9 bc 6e e9 ec 3c
       -0.010418442 0.022616755 -0.024633221 0.028919902
000150 df 70 3f 3c 8d 71 63 ba 78 be 6a bc 39 60 01 bb
       0.011684625 -0.0008676283 -0.014327638 -0.001974119
000160 9c 22 53 3d a0 ca b1 3d 9e d8 69 3d 7c 48 41 bd
       0.051546678 0.08681226 0.057091348 -0.047188267
000170 5e d9 b5 3a 48 9c 08 3d 9e 09 7e bd 84 ce f1 bd
       0.0013873985 0.033352166 -0.06202089 -0.11806968
000180 2f 9d 90 3c 0e c9 97 bc 5f 8c 5b bc 48 48 49 3d
       0.017653076 -0.018528488 -0.013400166 0.0491412
000190 78 53 eb bc 69 c2 72 bd aa cf 34 3d 9c 8d e2 3c
       -0.028726324 -0.059267435 0.044143356 0.027655415
0001a0 4c 54 95 3d 10 75 a8 3c 87 2d d0 bc 4f 1e cd 3c
       0.07291469 0.020563632 -0.025412334 0.025038866
0001b0 e9 de 88 3d de 9b 56 3c 3d 6a 3a 3d 9b 86 f6 3c
       0.06683142 0.013098685 0.045511473 0.030093482
0001c0 07 9e da 3c 5b ff 04 bb a5 c5 ab 3c 67 47 b4 3d
       0.026686681 -0.0020293805 0.020968268 0.088026814
0001d0 9a a5 b0 3d 95 a8 89 3d 1d 50 df 3a 21 11 7b 3b
       0.08625336 0.067216076 0.0017037425 0.003830977
0001e0 c8 d2 c7 3c ae d8 32 3c 4e bb cc 3c 30 aa b7 bc
       0.0243925 0.010915918 0.024991658 -0.022420019
0001f0 22 09 aa bd 84 62 2e bd 8b ff 51 3c b4 e8 83 bd
       -0.08302523 -0.04257442 0.012817274 -0.06440869
000200 5d 91 45 3d 4e 43 1e 3d 03 36 e7 3c 0a 1f f7 3c
       0.048234332 0.038638406 0.028223997 0.030166168
000210 e7 18 88 3d cb b4 fd bc 9c 00 be bc af 21 19 3d
       0.06645375 -0.030969998 -0.02319365 0.03738564
000220 d4 ed a0 3a b4 bb f1 3c 6c 6f 87 bc 65 0b ba bb
       0.001227791 0.02950845 -0.016532622 -0.005677628
000230 ee 77 b0 bc 01 74 c7 bc f2 43 92 3c 87 0e 52 3d
       -0.021541562 -0.024347307 0.017854664 0.051283386
000240 a8 ea 08 3d 6a e2 07 3c 09 23 7f 3d 1b b0 d6 bc
       0.03342691 0.008293727 0.06228927 -0.02620702
000250 b2 d2 21 bc a7 1b 91 bc 09 1a 71 3c d8 71 44 bc
       -0.009876894 -0.017713381 0.01471568 -0.011990033
000260 da f5 ab bc f2 a0 f9 bc 17 37 01 bc cb 2c 78 bb
       -0.020991255 -0.030472253 -0.00788667 -0.0037868496
000270 78 5d 02 bc 59 e9 79 3d 83 2b fd bc 48 a3 1f bc
       -0.007956855 0.061013553 -0.030904537 -0.009743519
000280 18 3f 01 bd f9 c6 6a 3c f9 94 0b 3d b0 31 05 bd
       -0.03155431 0.014329665 0.03407762 -0.03251809
000290 59 5b 6b bd 46 95 17 3d 7a 82 f5 bc 7c d2 13 3d
       -0.057460163 0.037007593 -0.029969443 0.036089405
0002a0 72 63 cd 3d d5 e9 bd 3c ef ec 4b 3b e3 b6 c1 bc
       0.10028733 0.023182789 0.0031116565 -0.023646777
0002b0 34 49 8b 3d 11 9d 44 bd 01 78 31 bc 9e eb 37 bd
       0.06801072 -0.048001353 -0.010831834 -0.044902436
0002c0 37 68 94 3c 0a 6d bf 3c 75 45 79 3d f8 3a 0e 3c
       0.0181161 0.023367424 0.060857255 0.008681051
0002d0 12 77 71 3d 54 26 5b 3b a2 96 93 3d 77 40 f8 bc
       0.058951445 0.0033439593 0.07206465 -0.030304177
0002e0 b8 42 00 bb b7 8b b4 3c 9f e2 22 bd ca b7 87 bd
       -0.0019571017 0.022039277 -0.039766904 -0.06626852
0002f0 cf 58 ef bc 92 9c 84 bb 7f ae df bc f7 db 77 bd
       -0.029217152 -0.004046985 -0.027304886 -0.06051251
000300 81 34 0c 3d f8 af 05 3d de 9a 1b 3a 6c 3d 0c 3c
       0.03422976 0.03263852 0.0005935858 0.008559566
000310 b4 23 d6 3c d6 51 be bc d7 c0 df 3a d2 fc c3 bc
       0.026140071 -0.023232382 0.001707102 -0.023924265
000320 fd 90 40 3d 33 9f 2f 3d 9a 78 3e 3d f7 bd a6 bc
       0.04701327 0.042876434 0.046501733 -0.020354254
000330 b1 30 b8 bd 65 e3 59 bc 8c c4 ed 3c 27 02 95 3c
       -0.08993662 -0.013298844 0.029024385 0.018189503
000340 ca 60 4e 3d 65 ab 0f bc 7f ce f6 3c 43 bc d6 ba
       0.050385274 -0.008768891 0.030127762 -0.0016383011
000350 3e aa 58 bd b0 47 b0 3c cc 38 1a bc 06 a0 98 bd
       -0.05289673 0.021518558 -0.0094129555 -0.07452397
000360 db 34 30 bd a9 50 f3 3b 7c b0 50 3d 52 ff f5 3c
       -0.043019157 0.007425387 0.05094956 0.030028973
000370 ea c3 4b 3d 2c 4c 0f 3d c7 6f e8 bc da 84 55 bd
       0.049747385 0.034984753 -0.028373612 -0.05212865
000380 68 2a 00 3d 6d 00 53 3b 4d c2 d6 3c f6 81 31 bb
       0.03129044 0.0032196299 0.026215697 -0.002708552
000390 94 d2 98 bd ec 04 cd ba c2 2d 72 3c 94 9a 47 bd
       -0.074620396 -0.0015641726 0.014781417 -0.0487314
0003a0 76 c9 f5 bc 88 e5 5b 3c 66 b1 ae bc 20 76 3a 3c
       -0.03000329 0.013421424 -0.021324825 0.011380702
0003b0 d9 50 e7 3d dc 7e 15 3d 8f 77 94 bd e6 e7 57 bd
       0.11294717 0.036497936 -0.072493665 -0.05271139
0003c0 a9 2c a5 bc 48 65 74 3d 02 53 cb bb ad 43 e5 3d
       -0.020162897 0.0596669 -0.0062049637 0.11194549
0003d0 3b cc 93 bd 25 ba 33 bc 33 46 8a 3c 64 45 25 bd
       -0.07216688 -0.010969673 0.016879177 -0.04034938
0003e0 50 b0 3c bd a0 6e ec bc 48 7d cf bb 74 4c 85 bd
       -0.046066582 -0.028861344 -0.0063320734 -0.06508723
0003f0 ba 1f 43 bc 2d 65 17 3d 56 96 95 bd 41 63 55 bd
       -0.01190942 0.036961723 -0.07304065 -0.05209661

fc1.bias f4 [50]
000000 47 7b 42 3d 15 cc 04 3d ec e1 eb ba 38 77 02 bd
       0.047480848 0.03242119 -0.0017996407 -0.031851977
000010 5d 4a 3a 3c c6 d4 2c 3a 6c 8c 1f 3d 36 80 10 3d
       0.011370269 0.0006592985 0.038952276 0.03527852
000020 78 23 be 38 dd 48 00 bc aa 3f 09 3c 87 21 ee bc
       9.0665126e-05 -0.007829872 0.008376995 -0.029068721
000030 fd 14 88 3d 0c ed a4 3c 9f a2 73 3d c6 26 02 bd
       0.06644628 0.020132564 0.05948126 -0.03177526
000040 9d 37 05 ba 76 1d 58 3d 43 92 a1 3c 8e 8d b1 3d
       -0.00050818344 0.05276247 0.019723063 0.086695775
000050 79 b4 92 3d 71 8d 38 3c f3 98 1b 3d 13 3d 94 3b
       0.07163329 0.011264191 0.03798766 0.004523882
000060 a6 a4 15 bd 92 01 10 bc a1 48 18 bd 92 d6 88 3d
       -0.036533974 -0.008789437 -0.03717864 0.06681551
000070 5f f4 4c 3c ae a2 48 bd fc 2a 03 bd 80 dc 39 3d
       0.0125094345 -0.04898327 -0.032023415 0.0453763
000080 33 02 c6 bb 45 eb c2 bc dd 91 78 3d 73 fb 78 3c
       -0.0060427426 -0.023793826 0.06068598 0.015196669
000090 36 35 89 ba 6b 6b 98 3d f0 a4 3e 3d 87 6f 85 bd
       -0.0010468129 0.07442363 0.046544015 -0.06515413
0000a0 33 85 4c 3c cc b7 f5 3a 95 4a 85 bd d5 d2 72 bc
       0.012482929 0.0018746792 -0.06508366 -0.014820774
0000b0 6c a0 83 3d 04 b6 99 3c 21 22 72 3d f3 97 f1 3b
       0.064270824 0.01876355 0.05911458 0.00737285
0000c0 8e b7 f2 bb fb d1 a6 bb
       -0.0074071353 -0.0050909496

fc2.weight f4 [10, 50]
000000 e5 52 89 be 9b 64 3e be ed 5b 06 be 7a d8 0f be
       -0.26821056 -0.18593065 -0.13121004 -0.14047423
000010 77 f6 0b 3e dc b5 3e 3d 3f 34 e3 bd c5 9d 2f be
       0.13668238 0.046560153 -0.110939495 -0.17150028
000020 6d 09 af 3d ae f6 22 bb d6 5c b7 3d 69 78 97 bd
       0.0854672 -0.002486627 0.08953254 -0.07396013
000030 a5 39 9b 3e 78 8c 8f 3e 76 cf 25 3e c0 4b bc bd
       0.30317417 0.28036857 0.16192421 -0.09194136
000040 3f cb e1 3d c4 e0 79 be 5e 41 0e be 4a 3c 42 be
       0.11025094 -0.24402148 -0.13892123 -0.18968311
000050 61 a3 f2 bd fc 09 51 be fd d6 01 be be 80 81 be
       -0.11847568 -0.20413965 -0.12679668 -0.25293535
000060 ff 18 3e 3e 5b 01 7a 3d a7 74 a3 bd 8d 7d c9 bd
       0.18564223 0.06103645 -0.07981234 -0.098384
000070 50 17 25 3e ef ec a7 3d 2f c4 1e be 1e 62 2f 3e
       0.16122174 0.08199488 -0.15504526 0.17127272
000080 63 2c 07 3d cf 9d 63 3b 06 22 81 bd 51 9d 30 be
       0.033001315 0.0034731512 -0.063053176 -0.17247511
000090 ba e5 dc bd 27 be 1b be 4c 16 5a bd 07 0b 69 bd
       -0.10786004 -0.15209256 -0.05324392 -0.056895282
0000a0 cd e5 9b 3d 6e b0 a3 3e 76 57 f1 bc 84 1a 90 bd
       0.076121904 0.31970543 -0.02946065 -0.070363075
0000b0 0c fa 03 3d 8a a3 3d 3d 26 e1 52 3e ce 12 75 3e
       0.032220885 0.04629854 0.205937 0.23932955
0000c0 ac 7d 2b be d0 71 fe 3d fa 61 84 3d 8b 66 1d 3e
       -0.16747159 0.12424052 0.06464 0.15371148
0000d0 a3 ab 78 be af 62 32 3e 31 c9 94 3b 10 7e 5d be
       -0.24284224 0.17420457 0.0045405854 -0.2163012
0000e0 b4 d2 0f bd b0 59 82 3d 6e 1f 6c bd c8 65 bc 3c
       -0.03511305 0.06364763 -0.05764716 0.022997752
0000f0 96 44 2e 3e 64 da 63 be 63 85 8b 3d ec aa 9e bd
       0.17018351 -0.22251278 0.06812551 -0.077474445
000100 8a 7b 7b be 17 a5 2e 3d df 15 0a be 11 7f 03 3e
       -0.24558845 0.04263791 -0.13484906 0.1284144
000110 86 f5 12 3e 54 36 84 3e e1 73 31 3e db b1 84 be
       0.14351472 0.258227 0.1732936 -0.25916943
000120 59 b2 9b be cd 1b 4f 3e d8 59 df bc dc 7e a8 3e
       -0.30409506 0.20225449 -0.02726452 0.32909286
000130 dd d1 1b 3e ca d5 3e 3e d8 3e 33 be c6 5b 20 be
       0.15216775 0.18636242 -0.17504442 -0.15660009
000140 78 59 11 3e 8c 41 86 bd da d2 17 be f4 5f 28 be
       0.14194286 -0.06555471 -0.14826527 -0.16442853
000150 1c a8 41 bd 3b 8e 48 3e 12 68 1b 3d 2d 07 1f 3e
       -0.047279462 0.19585507 0.037941046 0.15530081
000160 82 9a 21 3e 2f 4b 6f be 67 f6 53 3e 01 ae 0a be
       0.15781596 -0.23368524 0.20699464 -0.1354294
000170 68 4e 0b be 51 90 80 3e 92 fb 56 be 09 4c 0e 3d
       -0.13604128 0.25110105 -0.20994404 0.03474048
000180 91 85 5d 3c 15 80 da bd f8 46 a4 bd 8e 42 32 be
       0.013520614 -0.10668961 -0.08021349 -0.17408201
000190 61 68 22 be 3d 27 fe 3d 6b 9e 06 3e 8d 00 d3 3c
       -0.1586013 0.12409828 0.13146369 0.025757099
0001a0 21 e6 06 3e bd 70 67 3d 07 18 14 3e a6 5e 29 3e
       0.13173725 0.056504 0.1446229 0.16540012
0001b0 16 92 ff 3d 10 f8 54 3e f7 f3 91 3c bc ec 7f 3d
       0.124790356 0.20797753 0.017816527 0.062481627
0001c0 35 de b0 bd cf 68 50 bd 11 79 75 bd c1 ca 3b be
       -0.08636133 -0.050881203 -0.05992991 -0.18339063
0001d0 e1 0e f0 bd 42 bb 12 3e 1f c5 25 be 6a 86 5a be
       -0.11721588 0.14329246 -0.16188477 -0.21340337
0001e0 64 b2 c1 bd a4 0e c5 bd ee e2 1e be ee 70 2c 3e
       -0.094578534 -0.09621933 -0.15516254 0.16839954
0001f0 fe f0 ce bd 84 e6 bc 3d 6c b4 0f be 9d 38 f2 bd
       -0.10104559 0.09223655 -0.14033669 -0.118272044
000200 f0 39 f7 bc 8c 56 7c bd a9 a2 3a 3e c1 83 ce 3d
       -0.030178994 -0.061605975 0.18226112 0.10083724
000210 b9 05 f0 bd 3f b6 37 be 0a 80 29 3e 65 05 b7 bd
       -0.117198415 -0.17940615 0.1655275 -0.08936576
000220 77 75 1d 3e 04 ed 2b 3e 2c d3 17 be 23 69 e1 bd
       0.1537684 0.16789633 -0.1482665 -0.11006381
000230 a5 23 3b 3d 22 41 89 3e 2f 85 1b 3e e7 35 87 bc
       0.04568829 0.26807505 0.15187524 -0.016505195
000240 6f 07 d0 bd 32 01 d8 3d 0d ae d8 3d 0a 1d 26 3e
       -0.10157668 0.10547103 0.105800726 0.16222015
000250 ab 5b 0d 3e 1d 6d e3 3c 09 1b 0c 3e ad bf 2d be
       0.138045 0.02776199 0.13682188 -0.1696765
000260 9a c8 bf 3d a4 cc 27 3e c7 fd c0 bd e1 66 bb 3c
       0.093644336 0.16386658 -0.09423404 0.022876205
000270 f6 b8 08 be 84 17 35 3e f9 27 18 be d9 fb 85 bd
       -0.13351807 0.17684752 -0.14858998 -0.06542177
000280 a6 50 a8 bc d7 49 0d be 1f b0 09 be c0 60 45 bd
       -0.020546269 -0.13797699 -0.13446091 -0.04818797
000290 81 27 8f bd f5 82 30 3e 00 80 c3 bc 50 c2 14 3e
       -0.06989957 0.17237456 -0.023864746 0.1452725
0002a0 d7 6d 06 3e 08 07 12 be 71 31 4e be 9f ee 04 be
       0.13127838 -0.14260495 -0.20136048 -0.12981652
0002b0 5b 51 ed 3d 07 8f 59 bd 7d 6a 0f 3e 18 fd 31 be
       0.11587783 -0.053114917 0.14005466 -0.17381704
0002c0 1b 4a bf bd ce d9 66 3e 0f 29 d2 bd 98 fe e4 3d
       -0.09340306 0.22544023 -0.102617376 0.111813724
0002d0 f9 f0 22 3e 72 6b 2a 3e 37 eb 33 3e e6 58 49 bd
       0.15912236 0.1664255 0.17570196 -0.049157046
0002e0 5c b2 4b be 13 cb 34 be d6 9f 07 3e f6 5e 3d 3e
       -0.19892257 -0.17655592 0.13244566 0.18493256
0002f0 17 de 34 be 82 17 79 3e 7e e0 83 bd 12 ba 88 bc
       -0.17662846 0.24325374 -0.06439303 -0.016690288
000300 fa b3 c0 bd 8e 7e c1 bd ab c7 41 3d c4 45 ff 3d
       -0.09409328 -0.094479665 0.04730956 0.124644786
000310 a7 85 20 bd 01 f6 8e bd 61 66 e8 3d b6 94 c5 3d
       -0.03918996 -0.06980515 0.11347652 0.09647505
000320 27 0b 13 3e 29 bd 04 3e d6 e6 3f 3e 46 9c d5 bd
       0.14359723 0.12962784 0.187404 -0.104301974
000330 91 a6 eb 3c 64 f7 95 be bc f0 77 3e 8d 9c 27 3e
       0.028765948 -0.29290307 0.24212927 0.16368313
000340 af b3 e3 3d a2 be 6e bd 27 ab 83 3e df 48 87 3e
       0.11118256 -0.05828727 0.25716516 0.26422784
000350 5f b7 64 bd 21 51 6f bd d0 31 06 be 78 c5 19 be
       -0.05583894 -0.05842698 -0.1310494 -0.15016735
000360 06 79 51 be de 8f 25 be 53 12 63 3e d1 ff db 3d
       -0.20456323 -0.16168162 0.22174959 0.107421525
000370 29 3c 59 3e 76 4a 47 3e 52 92 2a 3d 76 eb a5 bd
       0.21214356 0.19461998 0.04164345 -0.08101551
000380 3b 93 9e bd 1d 32 3b bc 24 c3 ae 3c 2a 03 79 3d
       -0.07742926 -0.011425522 0.021333285 0.060794033
000390 fa 8b 63 be 97 67 55 be 5b f8 0f be 66 85 63 be
       -0.22221366 -0.20840298 -0.14059584 -0.22218856
0003a0 f5 c0 03 bc 7f 38 8e 3e 11 16 8c 3e d3 03 30 3e
       -0.00804161 0.27777478 0.27360585 0.17188959
0003b0 73 65 fa bd 57 ff 95 bd cf ec 11 bd bf 79 30 3d
       -0.12226381 -0.07324093 -0.03562623 0.043084856
0003c0 01 35 42 be c3 7c 93 3d 4a 65 9a bd 1d 34 d8 bd
       -0.18965532 0.07201531 -0.075388506 -0.10556815
0003d0 81 8b 53 3e 02 cf 1e bd 7d 69 a9 3d 35 e0 cc 3c
       0.20658685 -0.038771637 0.082720734 0.025009254
0003e0 bc d9 0b be cc 6b 82 be 35 ab 09 3e b2 c4 47 3d
       -0.13657278 -0.25472867 0.13444217 0.048771568
0003f0 cd 09 da bd 3b e4 fc bd 12 e6 1a 3e d8 5f 08 be
       -0.106464006 -0.12348219 0.15126827 -0.13317811

fc2.bias f4 [10]
000000 6e db eb 3d b2 ba 28 3e 6d cd c2 bd 92 a8 38 be
       0.11516462 0.16477469 -0.09511838 -0.18033054
000010 d8 7a 55 bd a6 1b 9d bd 6e 52 e8 bc 30 76 9a bd
       -0.052119106 -0.07671289 -0.028359618 -0.07542074
000020 f8 c1 54 3e c5 9c bd 3d
       0.20777118 0.09258417
